Files already downloaded and verified
----------------------------------------------------------------
        Layer (type)               Output Shape         Param #
================================================================
            Conv2d-1           [-1, 16, 32, 32]             432
       BatchNorm2d-2           [-1, 16, 32, 32]              32
              ReLU-3           [-1, 16, 32, 32]               0
            Conv2d-4           [-1, 16, 32, 32]           2,304
       BatchNorm2d-5           [-1, 16, 32, 32]              32
              ReLU-6           [-1, 16, 32, 32]               0
            Conv2d-7           [-1, 16, 32, 32]           2,304
       BatchNorm2d-8           [-1, 16, 32, 32]              32
              ReLU-9           [-1, 16, 32, 32]               0
         ResBlock-10           [-1, 16, 32, 32]               0
           Conv2d-11           [-1, 16, 32, 32]           2,304
      BatchNorm2d-12           [-1, 16, 32, 32]              32
             ReLU-13           [-1, 16, 32, 32]               0
           Conv2d-14           [-1, 16, 32, 32]           2,304
      BatchNorm2d-15           [-1, 16, 32, 32]              32
             ReLU-16           [-1, 16, 32, 32]               0
         ResBlock-17           [-1, 16, 32, 32]               0
           Conv2d-18           [-1, 16, 32, 32]           2,304
      BatchNorm2d-19           [-1, 16, 32, 32]              32
             ReLU-20           [-1, 16, 32, 32]               0
           Conv2d-21           [-1, 16, 32, 32]           2,304
      BatchNorm2d-22           [-1, 16, 32, 32]              32
             ReLU-23           [-1, 16, 32, 32]               0
         ResBlock-24           [-1, 16, 32, 32]               0
           Conv2d-25           [-1, 32, 16, 16]           4,608
      BatchNorm2d-26           [-1, 32, 16, 16]              64
             ReLU-27           [-1, 32, 16, 16]               0
           Conv2d-28           [-1, 32, 16, 16]           9,216
      BatchNorm2d-29           [-1, 32, 16, 16]              64
           Conv2d-30           [-1, 32, 16, 16]           4,608
      BatchNorm2d-31           [-1, 32, 16, 16]              64
             ReLU-32           [-1, 32, 16, 16]               0
         ResBlock-33           [-1, 32, 16, 16]               0
           Conv2d-34           [-1, 32, 16, 16]           9,216
      BatchNorm2d-35           [-1, 32, 16, 16]              64
             ReLU-36           [-1, 32, 16, 16]               0
           Conv2d-37           [-1, 32, 16, 16]           9,216
      BatchNorm2d-38           [-1, 32, 16, 16]              64
             ReLU-39           [-1, 32, 16, 16]               0
         ResBlock-40           [-1, 32, 16, 16]               0
           Conv2d-41           [-1, 32, 16, 16]           9,216
      BatchNorm2d-42           [-1, 32, 16, 16]              64
             ReLU-43           [-1, 32, 16, 16]               0
           Conv2d-44           [-1, 32, 16, 16]           9,216
      BatchNorm2d-45           [-1, 32, 16, 16]              64
             ReLU-46           [-1, 32, 16, 16]               0
         ResBlock-47           [-1, 32, 16, 16]               0
           Conv2d-48             [-1, 64, 8, 8]          18,432
      BatchNorm2d-49             [-1, 64, 8, 8]             128
             ReLU-50             [-1, 64, 8, 8]               0
           Conv2d-51             [-1, 64, 8, 8]          36,864
      BatchNorm2d-52             [-1, 64, 8, 8]             128
           Conv2d-53             [-1, 64, 8, 8]          18,432
      BatchNorm2d-54             [-1, 64, 8, 8]             128
             ReLU-55             [-1, 64, 8, 8]               0
         ResBlock-56             [-1, 64, 8, 8]               0
           Conv2d-57             [-1, 64, 8, 8]          36,864
      BatchNorm2d-58             [-1, 64, 8, 8]             128
             ReLU-59             [-1, 64, 8, 8]               0
           Conv2d-60             [-1, 64, 8, 8]          36,864
      BatchNorm2d-61             [-1, 64, 8, 8]             128
             ReLU-62             [-1, 64, 8, 8]               0
         ResBlock-63             [-1, 64, 8, 8]               0
           Conv2d-64             [-1, 64, 8, 8]          36,864
      BatchNorm2d-65             [-1, 64, 8, 8]             128
             ReLU-66             [-1, 64, 8, 8]               0
           Conv2d-67             [-1, 64, 8, 8]          36,864
      BatchNorm2d-68             [-1, 64, 8, 8]             128
             ReLU-69             [-1, 64, 8, 8]               0
         ResBlock-70             [-1, 64, 8, 8]               0
        AvgPool2d-71             [-1, 64, 1, 1]               0
           Linear-72                   [-1, 10]             650
           ResNet-73                   [-1, 10]               0
================================================================
Total params: 292,954
Trainable params: 292,954
Non-trainable params: 0
----------------------------------------------------------------
Input size (MB): 0.01
Forward/backward pass size (MB): 5.16
Params size (MB): 1.12
Estimated Total Size (MB): 6.29
----------------------------------------------------------------

(tensor(292954), tensor(292954))
…
Total training time 11.46 minutes taken
DATASET : CIFAR-10
MODEL : resnet20-cifar-50
OPTIMIZER : SGD (
Parameter Group 0
    dampening: 0
    lr: 0.0005
    momentum: 0.9
    nesterov: False
    weight_decay: 0.0001
)
SCHEDULER : <torch.optim.lr_scheduler.ReduceLROnPlateau object at 0x7fd2c11af220>
TESTSET AVG LOSS : 0.66
TESTSET AVG ACCR : 78.12%
Files already downloaded and verified
----------------------------------------------------------------
        Layer (type)               Output Shape         Param #
================================================================
            Conv2d-1           [-1, 16, 32, 32]             432
       BatchNorm2d-2           [-1, 16, 32, 32]              32
              ReLU-3           [-1, 16, 32, 32]               0
            Conv2d-4           [-1, 16, 32, 32]           2,304
       BatchNorm2d-5           [-1, 16, 32, 32]              32
              ReLU-6           [-1, 16, 32, 32]               0
            Conv2d-7           [-1, 16, 32, 32]           2,304
       BatchNorm2d-8           [-1, 16, 32, 32]              32
              ReLU-9           [-1, 16, 32, 32]               0
         ResBlock-10           [-1, 16, 32, 32]               0
           Conv2d-11           [-1, 16, 32, 32]           2,304
      BatchNorm2d-12           [-1, 16, 32, 32]              32
             ReLU-13           [-1, 16, 32, 32]               0
           Conv2d-14           [-1, 16, 32, 32]           2,304
      BatchNorm2d-15           [-1, 16, 32, 32]              32
             ReLU-16           [-1, 16, 32, 32]               0
         ResBlock-17           [-1, 16, 32, 32]               0
           Conv2d-18           [-1, 16, 32, 32]           2,304
      BatchNorm2d-19           [-1, 16, 32, 32]              32
             ReLU-20           [-1, 16, 32, 32]               0
           Conv2d-21           [-1, 16, 32, 32]           2,304
      BatchNorm2d-22           [-1, 16, 32, 32]              32
             ReLU-23           [-1, 16, 32, 32]               0
         ResBlock-24           [-1, 16, 32, 32]               0
           Conv2d-25           [-1, 16, 32, 32]           2,304
      BatchNorm2d-26           [-1, 16, 32, 32]              32
             ReLU-27           [-1, 16, 32, 32]               0
           Conv2d-28           [-1, 16, 32, 32]           2,304
      BatchNorm2d-29           [-1, 16, 32, 32]              32
             ReLU-30           [-1, 16, 32, 32]               0
         ResBlock-31           [-1, 16, 32, 32]               0
           Conv2d-32           [-1, 16, 32, 32]           2,304
      BatchNorm2d-33           [-1, 16, 32, 32]              32
             ReLU-34           [-1, 16, 32, 32]               0
           Conv2d-35           [-1, 16, 32, 32]           2,304
      BatchNorm2d-36           [-1, 16, 32, 32]              32
             ReLU-37           [-1, 16, 32, 32]               0
         ResBlock-38           [-1, 16, 32, 32]               0
           Conv2d-39           [-1, 32, 16, 16]           4,608
      BatchNorm2d-40           [-1, 32, 16, 16]              64
             ReLU-41           [-1, 32, 16, 16]               0
           Conv2d-42           [-1, 32, 16, 16]           9,216
      BatchNorm2d-43           [-1, 32, 16, 16]              64
           Conv2d-44           [-1, 32, 16, 16]           4,608
      BatchNorm2d-45           [-1, 32, 16, 16]              64
             ReLU-46           [-1, 32, 16, 16]               0
         ResBlock-47           [-1, 32, 16, 16]               0
           Conv2d-48           [-1, 32, 16, 16]           9,216
      BatchNorm2d-49           [-1, 32, 16, 16]              64
             ReLU-50           [-1, 32, 16, 16]               0
           Conv2d-51           [-1, 32, 16, 16]           9,216
      BatchNorm2d-52           [-1, 32, 16, 16]              64
             ReLU-53           [-1, 32, 16, 16]               0
         ResBlock-54           [-1, 32, 16, 16]               0
           Conv2d-55           [-1, 32, 16, 16]           9,216
      BatchNorm2d-56           [-1, 32, 16, 16]              64
             ReLU-57           [-1, 32, 16, 16]               0
           Conv2d-58           [-1, 32, 16, 16]           9,216
      BatchNorm2d-59           [-1, 32, 16, 16]              64
             ReLU-60           [-1, 32, 16, 16]               0
         ResBlock-61           [-1, 32, 16, 16]               0
           Conv2d-62           [-1, 32, 16, 16]           9,216
      BatchNorm2d-63           [-1, 32, 16, 16]              64
             ReLU-64           [-1, 32, 16, 16]               0
           Conv2d-65           [-1, 32, 16, 16]           9,216
      BatchNorm2d-66           [-1, 32, 16, 16]              64
             ReLU-67           [-1, 32, 16, 16]               0
         ResBlock-68           [-1, 32, 16, 16]               0
           Conv2d-69           [-1, 32, 16, 16]           9,216
      BatchNorm2d-70           [-1, 32, 16, 16]              64
             ReLU-71           [-1, 32, 16, 16]               0
           Conv2d-72           [-1, 32, 16, 16]           9,216
      BatchNorm2d-73           [-1, 32, 16, 16]              64
             ReLU-74           [-1, 32, 16, 16]               0
         ResBlock-75           [-1, 32, 16, 16]               0
           Conv2d-76             [-1, 64, 8, 8]          18,432
      BatchNorm2d-77             [-1, 64, 8, 8]             128
             ReLU-78             [-1, 64, 8, 8]               0
           Conv2d-79             [-1, 64, 8, 8]          36,864
      BatchNorm2d-80             [-1, 64, 8, 8]             128
           Conv2d-81             [-1, 64, 8, 8]          18,432
      BatchNorm2d-82             [-1, 64, 8, 8]             128
             ReLU-83             [-1, 64, 8, 8]               0
         ResBlock-84             [-1, 64, 8, 8]               0
           Conv2d-85             [-1, 64, 8, 8]          36,864
      BatchNorm2d-86             [-1, 64, 8, 8]             128
             ReLU-87             [-1, 64, 8, 8]               0
           Conv2d-88             [-1, 64, 8, 8]          36,864
      BatchNorm2d-89             [-1, 64, 8, 8]             128
             ReLU-90             [-1, 64, 8, 8]               0
         ResBlock-91             [-1, 64, 8, 8]               0
           Conv2d-92             [-1, 64, 8, 8]          36,864
      BatchNorm2d-93             [-1, 64, 8, 8]             128
             ReLU-94             [-1, 64, 8, 8]               0
           Conv2d-95             [-1, 64, 8, 8]          36,864
      BatchNorm2d-96             [-1, 64, 8, 8]             128
             ReLU-97             [-1, 64, 8, 8]               0
         ResBlock-98             [-1, 64, 8, 8]               0
           Conv2d-99             [-1, 64, 8, 8]          36,864
     BatchNorm2d-100             [-1, 64, 8, 8]             128
            ReLU-101             [-1, 64, 8, 8]               0
          Conv2d-102             [-1, 64, 8, 8]          36,864
     BatchNorm2d-103             [-1, 64, 8, 8]             128
            ReLU-104             [-1, 64, 8, 8]               0
        ResBlock-105             [-1, 64, 8, 8]               0
          Conv2d-106             [-1, 64, 8, 8]          36,864
     BatchNorm2d-107             [-1, 64, 8, 8]             128
            ReLU-108             [-1, 64, 8, 8]               0
          Conv2d-109             [-1, 64, 8, 8]          36,864
     BatchNorm2d-110             [-1, 64, 8, 8]             128
            ReLU-111             [-1, 64, 8, 8]               0
        ResBlock-112             [-1, 64, 8, 8]               0
       AvgPool2d-113             [-1, 64, 1, 1]               0
          Linear-114                   [-1, 10]             650
          ResNet-115                   [-1, 10]               0
================================================================
Total params: 487,386
Trainable params: 487,386
Non-trainable params: 0
----------------------------------------------------------------
Input size (MB): 0.01
Forward/backward pass size (MB): 8.22
Params size (MB): 1.86
Estimated Total Size (MB): 10.09
----------------------------------------------------------------

(tensor(487386), tensor(487386))
…
Total training time 16.13 minutes taken
DATASET : CIFAR-10
MODEL : resnet32-cifar-50
OPTIMIZER : SGD (
Parameter Group 0
    dampening: 0
    lr: 0.0005
    momentum: 0.9
    nesterov: False
    weight_decay: 0.0001
)
SCHEDULER : <torch.optim.lr_scheduler.ReduceLROnPlateau object at 0x7fd2c10ecfd0>
TESTSET AVG LOSS : 0.66
TESTSET AVG ACCR : 77.61%
Files already downloaded and verified
----------------------------------------------------------------
        Layer (type)               Output Shape         Param #
================================================================
            Conv2d-1           [-1, 16, 32, 32]             432
       BatchNorm2d-2           [-1, 16, 32, 32]              32
              ReLU-3           [-1, 16, 32, 32]               0
            Conv2d-4           [-1, 16, 32, 32]           2,304
       BatchNorm2d-5           [-1, 16, 32, 32]              32
              ReLU-6           [-1, 16, 32, 32]               0
            Conv2d-7           [-1, 16, 32, 32]           2,304
       BatchNorm2d-8           [-1, 16, 32, 32]              32
              ReLU-9           [-1, 16, 32, 32]               0
         ResBlock-10           [-1, 16, 32, 32]               0
           Conv2d-11           [-1, 16, 32, 32]           2,304
      BatchNorm2d-12           [-1, 16, 32, 32]              32
             ReLU-13           [-1, 16, 32, 32]               0
           Conv2d-14           [-1, 16, 32, 32]           2,304
      BatchNorm2d-15           [-1, 16, 32, 32]              32
             ReLU-16           [-1, 16, 32, 32]               0
         ResBlock-17           [-1, 16, 32, 32]               0
           Conv2d-18           [-1, 16, 32, 32]           2,304
      BatchNorm2d-19           [-1, 16, 32, 32]              32
             ReLU-20           [-1, 16, 32, 32]               0
           Conv2d-21           [-1, 16, 32, 32]           2,304
      BatchNorm2d-22           [-1, 16, 32, 32]              32
             ReLU-23           [-1, 16, 32, 32]               0
         ResBlock-24           [-1, 16, 32, 32]               0
           Conv2d-25           [-1, 16, 32, 32]           2,304
      BatchNorm2d-26           [-1, 16, 32, 32]              32
             ReLU-27           [-1, 16, 32, 32]               0
           Conv2d-28           [-1, 16, 32, 32]           2,304
      BatchNorm2d-29           [-1, 16, 32, 32]              32
             ReLU-30           [-1, 16, 32, 32]               0
         ResBlock-31           [-1, 16, 32, 32]               0
           Conv2d-32           [-1, 16, 32, 32]           2,304
      BatchNorm2d-33           [-1, 16, 32, 32]              32
             ReLU-34           [-1, 16, 32, 32]               0
           Conv2d-35           [-1, 16, 32, 32]           2,304
      BatchNorm2d-36           [-1, 16, 32, 32]              32
             ReLU-37           [-1, 16, 32, 32]               0
         ResBlock-38           [-1, 16, 32, 32]               0
           Conv2d-39           [-1, 16, 32, 32]           2,304
      BatchNorm2d-40           [-1, 16, 32, 32]              32
             ReLU-41           [-1, 16, 32, 32]               0
           Conv2d-42           [-1, 16, 32, 32]           2,304
      BatchNorm2d-43           [-1, 16, 32, 32]              32
             ReLU-44           [-1, 16, 32, 32]               0
         ResBlock-45           [-1, 16, 32, 32]               0
           Conv2d-46           [-1, 16, 32, 32]           2,304
      BatchNorm2d-47           [-1, 16, 32, 32]              32
             ReLU-48           [-1, 16, 32, 32]               0
           Conv2d-49           [-1, 16, 32, 32]           2,304
      BatchNorm2d-50           [-1, 16, 32, 32]              32
             ReLU-51           [-1, 16, 32, 32]               0
         ResBlock-52           [-1, 16, 32, 32]               0
           Conv2d-53           [-1, 32, 16, 16]           4,608
      BatchNorm2d-54           [-1, 32, 16, 16]              64
             ReLU-55           [-1, 32, 16, 16]               0
           Conv2d-56           [-1, 32, 16, 16]           9,216
      BatchNorm2d-57           [-1, 32, 16, 16]              64
           Conv2d-58           [-1, 32, 16, 16]           4,608
      BatchNorm2d-59           [-1, 32, 16, 16]              64
             ReLU-60           [-1, 32, 16, 16]               0
         ResBlock-61           [-1, 32, 16, 16]               0
           Conv2d-62           [-1, 32, 16, 16]           9,216
      BatchNorm2d-63           [-1, 32, 16, 16]              64
             ReLU-64           [-1, 32, 16, 16]               0
           Conv2d-65           [-1, 32, 16, 16]           9,216
      BatchNorm2d-66           [-1, 32, 16, 16]              64
             ReLU-67           [-1, 32, 16, 16]               0
         ResBlock-68           [-1, 32, 16, 16]               0
           Conv2d-69           [-1, 32, 16, 16]           9,216
      BatchNorm2d-70           [-1, 32, 16, 16]              64
             ReLU-71           [-1, 32, 16, 16]               0
           Conv2d-72           [-1, 32, 16, 16]           9,216
      BatchNorm2d-73           [-1, 32, 16, 16]              64
             ReLU-74           [-1, 32, 16, 16]               0
         ResBlock-75           [-1, 32, 16, 16]               0
           Conv2d-76           [-1, 32, 16, 16]           9,216
      BatchNorm2d-77           [-1, 32, 16, 16]              64
             ReLU-78           [-1, 32, 16, 16]               0
           Conv2d-79           [-1, 32, 16, 16]           9,216
      BatchNorm2d-80           [-1, 32, 16, 16]              64
             ReLU-81           [-1, 32, 16, 16]               0
         ResBlock-82           [-1, 32, 16, 16]               0
           Conv2d-83           [-1, 32, 16, 16]           9,216
      BatchNorm2d-84           [-1, 32, 16, 16]              64
             ReLU-85           [-1, 32, 16, 16]               0
           Conv2d-86           [-1, 32, 16, 16]           9,216
      BatchNorm2d-87           [-1, 32, 16, 16]              64
             ReLU-88           [-1, 32, 16, 16]               0
         ResBlock-89           [-1, 32, 16, 16]               0
           Conv2d-90           [-1, 32, 16, 16]           9,216
      BatchNorm2d-91           [-1, 32, 16, 16]              64
             ReLU-92           [-1, 32, 16, 16]               0
           Conv2d-93           [-1, 32, 16, 16]           9,216
      BatchNorm2d-94           [-1, 32, 16, 16]              64
             ReLU-95           [-1, 32, 16, 16]               0
         ResBlock-96           [-1, 32, 16, 16]               0
           Conv2d-97           [-1, 32, 16, 16]           9,216
      BatchNorm2d-98           [-1, 32, 16, 16]              64
             ReLU-99           [-1, 32, 16, 16]               0
          Conv2d-100           [-1, 32, 16, 16]           9,216
     BatchNorm2d-101           [-1, 32, 16, 16]              64
            ReLU-102           [-1, 32, 16, 16]               0
        ResBlock-103           [-1, 32, 16, 16]               0
          Conv2d-104             [-1, 64, 8, 8]          18,432
     BatchNorm2d-105             [-1, 64, 8, 8]             128
            ReLU-106             [-1, 64, 8, 8]               0
          Conv2d-107             [-1, 64, 8, 8]          36,864
     BatchNorm2d-108             [-1, 64, 8, 8]             128
          Conv2d-109             [-1, 64, 8, 8]          18,432
     BatchNorm2d-110             [-1, 64, 8, 8]             128
            ReLU-111             [-1, 64, 8, 8]               0
        ResBlock-112             [-1, 64, 8, 8]               0
          Conv2d-113             [-1, 64, 8, 8]          36,864
     BatchNorm2d-114             [-1, 64, 8, 8]             128
            ReLU-115             [-1, 64, 8, 8]               0
          Conv2d-116             [-1, 64, 8, 8]          36,864
     BatchNorm2d-117             [-1, 64, 8, 8]             128
            ReLU-118             [-1, 64, 8, 8]               0
        ResBlock-119             [-1, 64, 8, 8]               0
          Conv2d-120             [-1, 64, 8, 8]          36,864
     BatchNorm2d-121             [-1, 64, 8, 8]             128
            ReLU-122             [-1, 64, 8, 8]               0
          Conv2d-123             [-1, 64, 8, 8]          36,864
     BatchNorm2d-124             [-1, 64, 8, 8]             128
            ReLU-125             [-1, 64, 8, 8]               0
        ResBlock-126             [-1, 64, 8, 8]               0
          Conv2d-127             [-1, 64, 8, 8]          36,864
     BatchNorm2d-128             [-1, 64, 8, 8]             128
            ReLU-129             [-1, 64, 8, 8]               0
          Conv2d-130             [-1, 64, 8, 8]          36,864
     BatchNorm2d-131             [-1, 64, 8, 8]             128
            ReLU-132             [-1, 64, 8, 8]               0
        ResBlock-133             [-1, 64, 8, 8]               0
          Conv2d-134             [-1, 64, 8, 8]          36,864
     BatchNorm2d-135             [-1, 64, 8, 8]             128
            ReLU-136             [-1, 64, 8, 8]               0
          Conv2d-137             [-1, 64, 8, 8]          36,864
     BatchNorm2d-138             [-1, 64, 8, 8]             128
            ReLU-139             [-1, 64, 8, 8]               0
        ResBlock-140             [-1, 64, 8, 8]               0
          Conv2d-141             [-1, 64, 8, 8]          36,864
     BatchNorm2d-142             [-1, 64, 8, 8]             128
            ReLU-143             [-1, 64, 8, 8]               0
          Conv2d-144             [-1, 64, 8, 8]          36,864
     BatchNorm2d-145             [-1, 64, 8, 8]             128
            ReLU-146             [-1, 64, 8, 8]               0
        ResBlock-147             [-1, 64, 8, 8]               0
          Conv2d-148             [-1, 64, 8, 8]          36,864
     BatchNorm2d-149             [-1, 64, 8, 8]             128
            ReLU-150             [-1, 64, 8, 8]               0
          Conv2d-151             [-1, 64, 8, 8]          36,864
     BatchNorm2d-152             [-1, 64, 8, 8]             128
            ReLU-153             [-1, 64, 8, 8]               0
        ResBlock-154             [-1, 64, 8, 8]               0
       AvgPool2d-155             [-1, 64, 1, 1]               0
          Linear-156                   [-1, 10]             650
          ResNet-157                   [-1, 10]               0
================================================================
Total params: 681,818
Trainable params: 681,818
Non-trainable params: 0
----------------------------------------------------------------
Input size (MB): 0.01
Forward/backward pass size (MB): 11.28
Params size (MB): 2.60
Estimated Total Size (MB): 13.89
----------------------------------------------------------------

(tensor(681818), tensor(681818))
…
Total training time 21.55 minutes taken
DATASET : CIFAR-10
MODEL : resnet44-cifar-50
OPTIMIZER : SGD (
Parameter Group 0
    dampening: 0
    lr: 0.0005
    momentum: 0.9
    nesterov: False
    weight_decay: 0.0001
)
SCHEDULER : <torch.optim.lr_scheduler.ReduceLROnPlateau object at 0x7fd2a7ec9b80>
TESTSET AVG LOSS : 0.70
TESTSET AVG ACCR : 75.91%
Files already downloaded and verified
----------------------------------------------------------------
        Layer (type)               Output Shape         Param #
================================================================
            Conv2d-1           [-1, 16, 32, 32]             432
       BatchNorm2d-2           [-1, 16, 32, 32]              32
              ReLU-3           [-1, 16, 32, 32]               0
            Conv2d-4           [-1, 16, 32, 32]           2,304
       BatchNorm2d-5           [-1, 16, 32, 32]              32
              ReLU-6           [-1, 16, 32, 32]               0
            Conv2d-7           [-1, 16, 32, 32]           2,304
       BatchNorm2d-8           [-1, 16, 32, 32]              32
              ReLU-9           [-1, 16, 32, 32]               0
         ResBlock-10           [-1, 16, 32, 32]               0
           Conv2d-11           [-1, 16, 32, 32]           2,304
      BatchNorm2d-12           [-1, 16, 32, 32]              32
             ReLU-13           [-1, 16, 32, 32]               0
           Conv2d-14           [-1, 16, 32, 32]           2,304
      BatchNorm2d-15           [-1, 16, 32, 32]              32
             ReLU-16           [-1, 16, 32, 32]               0
         ResBlock-17           [-1, 16, 32, 32]               0
           Conv2d-18           [-1, 16, 32, 32]           2,304
      BatchNorm2d-19           [-1, 16, 32, 32]              32
             ReLU-20           [-1, 16, 32, 32]               0
           Conv2d-21           [-1, 16, 32, 32]           2,304
      BatchNorm2d-22           [-1, 16, 32, 32]              32
             ReLU-23           [-1, 16, 32, 32]               0
         ResBlock-24           [-1, 16, 32, 32]               0
           Conv2d-25           [-1, 16, 32, 32]           2,304
      BatchNorm2d-26           [-1, 16, 32, 32]              32
             ReLU-27           [-1, 16, 32, 32]               0
           Conv2d-28           [-1, 16, 32, 32]           2,304
      BatchNorm2d-29           [-1, 16, 32, 32]              32
             ReLU-30           [-1, 16, 32, 32]               0
         ResBlock-31           [-1, 16, 32, 32]               0
           Conv2d-32           [-1, 16, 32, 32]           2,304
      BatchNorm2d-33           [-1, 16, 32, 32]              32
             ReLU-34           [-1, 16, 32, 32]               0
           Conv2d-35           [-1, 16, 32, 32]           2,304
      BatchNorm2d-36           [-1, 16, 32, 32]              32
             ReLU-37           [-1, 16, 32, 32]               0
         ResBlock-38           [-1, 16, 32, 32]               0
           Conv2d-39           [-1, 16, 32, 32]           2,304
      BatchNorm2d-40           [-1, 16, 32, 32]              32
             ReLU-41           [-1, 16, 32, 32]               0
           Conv2d-42           [-1, 16, 32, 32]           2,304
      BatchNorm2d-43           [-1, 16, 32, 32]              32
             ReLU-44           [-1, 16, 32, 32]               0
         ResBlock-45           [-1, 16, 32, 32]               0
           Conv2d-46           [-1, 16, 32, 32]           2,304
      BatchNorm2d-47           [-1, 16, 32, 32]              32
             ReLU-48           [-1, 16, 32, 32]               0
           Conv2d-49           [-1, 16, 32, 32]           2,304
      BatchNorm2d-50           [-1, 16, 32, 32]              32
             ReLU-51           [-1, 16, 32, 32]               0
         ResBlock-52           [-1, 16, 32, 32]               0
           Conv2d-53           [-1, 16, 32, 32]           2,304
      BatchNorm2d-54           [-1, 16, 32, 32]              32
             ReLU-55           [-1, 16, 32, 32]               0
           Conv2d-56           [-1, 16, 32, 32]           2,304
      BatchNorm2d-57           [-1, 16, 32, 32]              32
             ReLU-58           [-1, 16, 32, 32]               0
         ResBlock-59           [-1, 16, 32, 32]               0
           Conv2d-60           [-1, 16, 32, 32]           2,304
      BatchNorm2d-61           [-1, 16, 32, 32]              32
             ReLU-62           [-1, 16, 32, 32]               0
           Conv2d-63           [-1, 16, 32, 32]           2,304
      BatchNorm2d-64           [-1, 16, 32, 32]              32
             ReLU-65           [-1, 16, 32, 32]               0
         ResBlock-66           [-1, 16, 32, 32]               0
           Conv2d-67           [-1, 32, 16, 16]           4,608
      BatchNorm2d-68           [-1, 32, 16, 16]              64
             ReLU-69           [-1, 32, 16, 16]               0
           Conv2d-70           [-1, 32, 16, 16]           9,216
      BatchNorm2d-71           [-1, 32, 16, 16]              64
           Conv2d-72           [-1, 32, 16, 16]           4,608
      BatchNorm2d-73           [-1, 32, 16, 16]              64
             ReLU-74           [-1, 32, 16, 16]               0
         ResBlock-75           [-1, 32, 16, 16]               0
           Conv2d-76           [-1, 32, 16, 16]           9,216
      BatchNorm2d-77           [-1, 32, 16, 16]              64
             ReLU-78           [-1, 32, 16, 16]               0
           Conv2d-79           [-1, 32, 16, 16]           9,216
      BatchNorm2d-80           [-1, 32, 16, 16]              64
             ReLU-81           [-1, 32, 16, 16]               0
         ResBlock-82           [-1, 32, 16, 16]               0
           Conv2d-83           [-1, 32, 16, 16]           9,216
      BatchNorm2d-84           [-1, 32, 16, 16]              64
             ReLU-85           [-1, 32, 16, 16]               0
           Conv2d-86           [-1, 32, 16, 16]           9,216
      BatchNorm2d-87           [-1, 32, 16, 16]              64
             ReLU-88           [-1, 32, 16, 16]               0
         ResBlock-89           [-1, 32, 16, 16]               0
           Conv2d-90           [-1, 32, 16, 16]           9,216
      BatchNorm2d-91           [-1, 32, 16, 16]              64
             ReLU-92           [-1, 32, 16, 16]               0
           Conv2d-93           [-1, 32, 16, 16]           9,216
      BatchNorm2d-94           [-1, 32, 16, 16]              64
             ReLU-95           [-1, 32, 16, 16]               0
         ResBlock-96           [-1, 32, 16, 16]               0
           Conv2d-97           [-1, 32, 16, 16]           9,216
      BatchNorm2d-98           [-1, 32, 16, 16]              64
             ReLU-99           [-1, 32, 16, 16]               0
          Conv2d-100           [-1, 32, 16, 16]           9,216
     BatchNorm2d-101           [-1, 32, 16, 16]              64
            ReLU-102           [-1, 32, 16, 16]               0
        ResBlock-103           [-1, 32, 16, 16]               0
          Conv2d-104           [-1, 32, 16, 16]           9,216
     BatchNorm2d-105           [-1, 32, 16, 16]              64
            ReLU-106           [-1, 32, 16, 16]               0
          Conv2d-107           [-1, 32, 16, 16]           9,216
     BatchNorm2d-108           [-1, 32, 16, 16]              64
            ReLU-109           [-1, 32, 16, 16]               0
        ResBlock-110           [-1, 32, 16, 16]               0
          Conv2d-111           [-1, 32, 16, 16]           9,216
     BatchNorm2d-112           [-1, 32, 16, 16]              64
            ReLU-113           [-1, 32, 16, 16]               0
          Conv2d-114           [-1, 32, 16, 16]           9,216
     BatchNorm2d-115           [-1, 32, 16, 16]              64
            ReLU-116           [-1, 32, 16, 16]               0
        ResBlock-117           [-1, 32, 16, 16]               0
          Conv2d-118           [-1, 32, 16, 16]           9,216
     BatchNorm2d-119           [-1, 32, 16, 16]              64
            ReLU-120           [-1, 32, 16, 16]               0
          Conv2d-121           [-1, 32, 16, 16]           9,216
     BatchNorm2d-122           [-1, 32, 16, 16]              64
            ReLU-123           [-1, 32, 16, 16]               0
        ResBlock-124           [-1, 32, 16, 16]               0
          Conv2d-125           [-1, 32, 16, 16]           9,216
     BatchNorm2d-126           [-1, 32, 16, 16]              64
            ReLU-127           [-1, 32, 16, 16]               0
          Conv2d-128           [-1, 32, 16, 16]           9,216
     BatchNorm2d-129           [-1, 32, 16, 16]              64
            ReLU-130           [-1, 32, 16, 16]               0
        ResBlock-131           [-1, 32, 16, 16]               0
          Conv2d-132             [-1, 64, 8, 8]          18,432
     BatchNorm2d-133             [-1, 64, 8, 8]             128
            ReLU-134             [-1, 64, 8, 8]               0
          Conv2d-135             [-1, 64, 8, 8]          36,864
     BatchNorm2d-136             [-1, 64, 8, 8]             128
          Conv2d-137             [-1, 64, 8, 8]          18,432
     BatchNorm2d-138             [-1, 64, 8, 8]             128
            ReLU-139             [-1, 64, 8, 8]               0
        ResBlock-140             [-1, 64, 8, 8]               0
          Conv2d-141             [-1, 64, 8, 8]          36,864
     BatchNorm2d-142             [-1, 64, 8, 8]             128
            ReLU-143             [-1, 64, 8, 8]               0
          Conv2d-144             [-1, 64, 8, 8]          36,864
     BatchNorm2d-145             [-1, 64, 8, 8]             128
            ReLU-146             [-1, 64, 8, 8]               0
        ResBlock-147             [-1, 64, 8, 8]               0
          Conv2d-148             [-1, 64, 8, 8]          36,864
     BatchNorm2d-149             [-1, 64, 8, 8]             128
            ReLU-150             [-1, 64, 8, 8]               0
          Conv2d-151             [-1, 64, 8, 8]          36,864
     BatchNorm2d-152             [-1, 64, 8, 8]             128
            ReLU-153             [-1, 64, 8, 8]               0
        ResBlock-154             [-1, 64, 8, 8]               0
          Conv2d-155             [-1, 64, 8, 8]          36,864
     BatchNorm2d-156             [-1, 64, 8, 8]             128
            ReLU-157             [-1, 64, 8, 8]               0
          Conv2d-158             [-1, 64, 8, 8]          36,864
     BatchNorm2d-159             [-1, 64, 8, 8]             128
            ReLU-160             [-1, 64, 8, 8]               0
        ResBlock-161             [-1, 64, 8, 8]               0
          Conv2d-162             [-1, 64, 8, 8]          36,864
     BatchNorm2d-163             [-1, 64, 8, 8]             128
            ReLU-164             [-1, 64, 8, 8]               0
          Conv2d-165             [-1, 64, 8, 8]          36,864
     BatchNorm2d-166             [-1, 64, 8, 8]             128
            ReLU-167             [-1, 64, 8, 8]               0
        ResBlock-168             [-1, 64, 8, 8]               0
          Conv2d-169             [-1, 64, 8, 8]          36,864
     BatchNorm2d-170             [-1, 64, 8, 8]             128
            ReLU-171             [-1, 64, 8, 8]               0
          Conv2d-172             [-1, 64, 8, 8]          36,864
     BatchNorm2d-173             [-1, 64, 8, 8]             128
            ReLU-174             [-1, 64, 8, 8]               0
        ResBlock-175             [-1, 64, 8, 8]               0
          Conv2d-176             [-1, 64, 8, 8]          36,864
     BatchNorm2d-177             [-1, 64, 8, 8]             128
            ReLU-178             [-1, 64, 8, 8]               0
          Conv2d-179             [-1, 64, 8, 8]          36,864
     BatchNorm2d-180             [-1, 64, 8, 8]             128
            ReLU-181             [-1, 64, 8, 8]               0
        ResBlock-182             [-1, 64, 8, 8]               0
          Conv2d-183             [-1, 64, 8, 8]          36,864
     BatchNorm2d-184             [-1, 64, 8, 8]             128
            ReLU-185             [-1, 64, 8, 8]               0
          Conv2d-186             [-1, 64, 8, 8]          36,864
     BatchNorm2d-187             [-1, 64, 8, 8]             128
            ReLU-188             [-1, 64, 8, 8]               0
        ResBlock-189             [-1, 64, 8, 8]               0
          Conv2d-190             [-1, 64, 8, 8]          36,864
     BatchNorm2d-191             [-1, 64, 8, 8]             128
            ReLU-192             [-1, 64, 8, 8]               0
          Conv2d-193             [-1, 64, 8, 8]          36,864
     BatchNorm2d-194             [-1, 64, 8, 8]             128
            ReLU-195             [-1, 64, 8, 8]               0
        ResBlock-196             [-1, 64, 8, 8]               0
       AvgPool2d-197             [-1, 64, 1, 1]               0
          Linear-198                   [-1, 10]             650
          ResNet-199                   [-1, 10]               0
================================================================
Total params: 876,250
Trainable params: 876,250
Non-trainable params: 0
----------------------------------------------------------------
Input size (MB): 0.01
Forward/backward pass size (MB): 14.34
Params size (MB): 3.34
Estimated Total Size (MB): 17.70
----------------------------------------------------------------

(tensor(876250), tensor(876250))
…
