Files already downloaded and verified
----------------------------------------------------------------
        Layer (type)               Output Shape         Param #
================================================================
            Conv2d-1           [-1, 64, 32, 32]           1,792
       BatchNorm2d-2           [-1, 64, 32, 32]             128
              ReLU-3           [-1, 64, 32, 32]               0
         MaxPool2d-4           [-1, 64, 16, 16]               0
            Conv2d-5          [-1, 128, 16, 16]          73,856
       BatchNorm2d-6          [-1, 128, 16, 16]             256
              ReLU-7          [-1, 128, 16, 16]               0
         MaxPool2d-8            [-1, 128, 8, 8]               0
            Conv2d-9            [-1, 256, 8, 8]         295,168
      BatchNorm2d-10            [-1, 256, 8, 8]             512
             ReLU-11            [-1, 256, 8, 8]               0
           Conv2d-12            [-1, 256, 8, 8]         590,080
      BatchNorm2d-13            [-1, 256, 8, 8]             512
             ReLU-14            [-1, 256, 8, 8]               0
        MaxPool2d-15            [-1, 256, 4, 4]               0
           Conv2d-16            [-1, 512, 4, 4]       1,180,160
      BatchNorm2d-17            [-1, 512, 4, 4]           1,024
             ReLU-18            [-1, 512, 4, 4]               0
           Conv2d-19            [-1, 512, 4, 4]       2,359,808
      BatchNorm2d-20            [-1, 512, 4, 4]           1,024
             ReLU-21            [-1, 512, 4, 4]               0
        MaxPool2d-22            [-1, 512, 2, 2]               0
           Conv2d-23            [-1, 512, 2, 2]       2,359,808
      BatchNorm2d-24            [-1, 512, 2, 2]           1,024
             ReLU-25            [-1, 512, 2, 2]               0
           Conv2d-26            [-1, 512, 2, 2]       2,359,808
      BatchNorm2d-27            [-1, 512, 2, 2]           1,024
             ReLU-28            [-1, 512, 2, 2]               0
        MaxPool2d-29            [-1, 512, 1, 1]               0
        AvgPool2d-30            [-1, 512, 1, 1]               0
          Dropout-31                  [-1, 512]               0
           Linear-32                  [-1, 512]         262,656
             ReLU-33                  [-1, 512]               0
          Dropout-34                  [-1, 512]               0
           Linear-35                  [-1, 512]         262,656
             ReLU-36                  [-1, 512]               0
           Linear-37                   [-1, 10]           5,130
           VGGNet-38                   [-1, 10]               0
================================================================
Total params: 9,756,426
Trainable params: 9,756,426
Non-trainable params: 0
----------------------------------------------------------------
Input size (MB): 0.01
Forward/backward pass size (MB): 3.73
Params size (MB): 37.22
Estimated Total Size (MB): 40.96
----------------------------------------------------------------

(tensor(9756426), tensor(9756426))
…
